Model: "functional"
+------------------------------------------------------------------------------------+
| Layer (type)                        | Output Shape               |         Param # |
|-------------------------------------+----------------------------+-----------------|
| input_layer (InputLayer)            | (None, 128, 165, 1)        |               0 |
|-------------------------------------+----------------------------+-----------------|
| conv2d (Conv2D)                     | (None, 128, 165, 32)       |             320 |
|-------------------------------------+----------------------------+-----------------|
| batch_normalization                 | (None, 128, 165, 32)       |             128 |
| (BatchNormalization)                |                            |                 |
|-------------------------------------+----------------------------+-----------------|
| max_pooling2d (MaxPooling2D)        | (None, 64, 82, 32)         |               0 |
|-------------------------------------+----------------------------+-----------------|
| dropout (Dropout)                   | (None, 64, 82, 32)         |               0 |
|-------------------------------------+----------------------------+-----------------|
| conv2d_1 (Conv2D)                   | (None, 64, 82, 64)         |          18,496 |
|-------------------------------------+----------------------------+-----------------|
| batch_normalization_1               | (None, 64, 82, 64)         |             256 |
| (BatchNormalization)                |                            |                 |
|-------------------------------------+----------------------------+-----------------|
| max_pooling2d_1 (MaxPooling2D)      | (None, 32, 41, 64)         |               0 |
|-------------------------------------+----------------------------+-----------------|
| dropout_1 (Dropout)                 | (None, 32, 41, 64)         |               0 |
|-------------------------------------+----------------------------+-----------------|
| flatten (Flatten)                   | (None, 83968)              |               0 |
|-------------------------------------+----------------------------+-----------------|
| dense (Dense)                       | (None, 128)                |      10,748,032 |
|-------------------------------------+----------------------------+-----------------|
| batch_normalization_2               | (None, 128)                |             512 |
| (BatchNormalization)                |                            |                 |
|-------------------------------------+----------------------------+-----------------|
| dropout_2 (Dropout)                 | (None, 128)                |               0 |
|-------------------------------------+----------------------------+-----------------|
| dense_1 (Dense)                     | (None, 64)                 |           8,256 |
|-------------------------------------+----------------------------+-----------------|
| batch_normalization_3               | (None, 64)                 |             256 |
| (BatchNormalization)                |                            |                 |
|-------------------------------------+----------------------------+-----------------|
| dropout_3 (Dropout)                 | (None, 64)                 |               0 |
|-------------------------------------+----------------------------+-----------------|
| dense_2 (Dense)                     | (None, 7)                  |             455 |
+------------------------------------------------------------------------------------+
 Total params: 32,328,983 (123.33 MB)
 Trainable params: 10,776,135 (41.11 MB)
 Non-trainable params: 576 (2.25 KB)
 Optimizer params: 21,552,272 (82.22 MB)
